A37TextCNN/ner_model.pth (torch, 802113 bytes, 12 tensors)

transition f4 [13, 13]
000000 9b 59 cc 3d c3 98 12 3e fb 3f 46 3c 47 28 b7 3c
       0.099780284 0.14316086 0.012100215 0.022358073
000010 0a ee 1d 3e 35 ee d5 bb 33 30 15 3e 04 bd fe bc
       0.15422836 -0.0065286406 0.14569168 -0.031095989
000020 75 c4 7c 3c cc fe df 3d 65 85 6e bc 7c f2 13 3d
       0.015427698 0.109372705 -0.014558171 0.036119923
000030 0b 56 0f 3d be f8 c5 3c 3a 0b e5 bc 85 f9 0a 3e
       0.034994166 0.024166461 -0.027959455 0.13571747
000040 7b d0 18 3d 6e fd 30 3d fd 05 2a 3d 9f b2 20 3d
       0.037308197 0.04321044 0.041509617 0.039232846
000050 ad c5 13 3d 6a b0 1f 3d 26 44 43 3d 07 cb 47 3d
       0.03607719 0.0389866 0.047672413 0.048777606
000060 8a 10 4f 3d ed ce 4d 3d 43 4d ad 3c 89 3f f3 3b
       0.050552882 0.050246168 0.021155005 0.0074233455
000070 66 96 e9 3d 99 3c 03 3e cd 46 a0 3c 30 d5 da 3c
       0.11405639 0.12816085 0.01956501 0.026712984
000080 69 c1 ef 3c f0 88 c9 3c df c9 e5 3c 2c aa 24 3d
       0.02926703 0.02460143 0.028050361 0.04020135
000090 18 70 17 3d 1e 76 29 3d 51 ee 28 3d 06 10 0e 3e
       0.036972135 0.04137241 0.0412429 0.138733
0000a0 f8 b6 2a 3d 77 ac b8 3c 24 88 b6 3b af 2a 2e bc
       0.0416784 0.022543175 0.0055704284 -0.010630294
0000b0 95 7d c7 3c 50 96 22 3d 55 5f 1e 3d 7c da 1d 3d
       0.024351874 0.03969413 0.038665134 0.03853844
0000c0 a2 09 42 3d af 5c 16 3d 3a da 4a 3d 7d a7 42 3d
       0.047372468 0.036709484 0.049524523 0.04752301
0000d0 91 48 3c bc 82 17 29 3d e4 73 d9 3c e5 33 13 3d
       -0.011491911 0.041282184 0.026544519 0.035938162
0000e0 72 86 38 bd 83 5d 00 3e a1 1f f3 3c af 39 03 3d
       -0.045050092 0.12535672 0.029678168 0.032037433
0000f0 07 ff 05 3d 10 c6 36 3d 4e ee 24 3e ed e6 45 3d
       0.032713916 0.04462248 0.16106531 0.04831593
000100 89 e5 3f 3d 18 4d 1b 3e 3d 3c 16 3d e5 8c f3 3c
       0.04684976 0.15166128 0.03667854 0.02973027
000110 ea fb 27 3d 19 52 44 3c d9 b5 59 bd 14 a2 d7 3c
       0.04101173 0.011982464 -0.05315194 0.026322402
000120 be 9f 04 3d a4 18 0a 3d e6 2c 37 3d db e9 e0 3c
       0.032378905 0.033714905 0.044720553 0.027455261
000130 24 fb 4a 3d 35 ec 44 3d cd 1c 1a 3c b0 48 16 3d
       0.049555913 0.048076827 0.009406281 0.036690414
000140 07 30 bc 3c 74 39 26 3d 41 2f 1a 3d d0 b2 01 3d
       0.02297212 0.040582135 0.03764272 0.03166467
000150 ed ba 41 bd 1f 82 1f 3e 41 29 50 3c f1 db 2a 3d
       -0.047297407 0.15576981 0.012705148 0.04171366
000160 21 f6 38 3d ee ce 46 3d bd 72 40 3d a5 0a eb 3b
       0.0451566 0.048537187 0.046984423 0.0071729
000170 01 23 21 3d 01 8b e3 3c 83 33 26 3d 83 86 1f 3d
       0.039340023 0.027776243 0.04057647 0.03894664
000180 53 ff 03 3d 10 bd 6a 3c bd f4 f5 3c c0 4a 0f 3e
       0.032225918 0.014327303 0.030023927 0.13993359
000190 cc 27 38 3d 4b 7e 3c 3d 97 96 47 3d de a9 40 3d
       0.04495983 0.04601888 0.048727598 0.047036998
0001a0 41 8a f4 3d 46 69 27 3d ab 26 06 3d 7f e8 32 3d
       0.11940432 0.04087188 0.03275172 0.043678757
0001b0 29 63 2a 3d 91 b9 1b 3d 61 c7 22 3d bb 0c 0f 3d
       0.041598473 0.038018767 0.039740924 0.03492425
0001c0 b1 32 1a 3c 8f 9f 32 3d fd c8 44 3d 5a 7a 4d 3d
       0.0094115 0.0436092 0.04804324 0.05016551
0001d0 9a e2 48 3d ee 2c 16 3d 9a 3a 4c 3d f9 01 26 3d
       0.04904423 0.036663942 0.049860574 0.040529225
0001e0 c8 b6 4b 3d ac 95 4a 3d f9 90 41 3d 0d ab 48 3d
       0.04973486 0.049459144 0.047257397 0.04899125
0001f0 e4 fc 44 3d bd 23 41 3d 95 b1 51 3d 96 23 55 3d
       0.048092738 0.047153223 0.051194746 0.05203589
000200 a8 a2 5a 3d ba 12 58 3d d8 bc bc bc 98 84 44 3d
       0.053377777 0.052752234 -0.023039266 0.047978014
000210 6e cc 1b 3d 3e 09 42 3d bc 7a a7 3c 44 fc 27 3e
       0.038036756 0.047372095 0.020444266 0.16404825
000220 e2 79 36 3d f3 ca 31 3d 48 65 2f 3d 6a f0 49 3d
       0.04454983 0.043406438 0.0428212 0.049301542
000230 b8 7d 8d bc 29 f5 55 3d 71 a2 52 3d 0f f8 16 3d
       -0.017271861 0.052235756 0.051424447 0.03685766
000240 44 e2 4c 3d 7d 90 25 3d 0e 6c 4d 3d 9c 1f 4c 3d
       0.05002047 0.040420998 0.050151877 0.049834833
000250 43 99 42 3d b5 8c 4a 3d 85 35 46 3d ff 96 42 3d
       0.047509443 0.049450595 0.048390884 0.047507282
000260 50 e4 51 3d d5 ed 55 3d e4 4a 5b 3d 76 bb 58 3d
       0.051243126 0.052228767 0.05353822 0.05291315
000270 98 9a 00 3e 85 59 7e 3c 30 de db 3c 70 9f 3b 3d
       0.12558973 0.015524273 0.026839346 0.04580635
000280 08 e3 32 3d 32 56 1e 3d bf cf 24 3d d4 0b 24 3d
       0.043673545 0.03865642 0.040237185 0.040050343
000290 62 ed 21 3d fc 63 46 3d 53 b3 43 3d 66 76 49 3d
       0.039533027 0.048435196 0.04777844 0.04918518
0002a0 2a ae 46 3d
       0.04850594

embedding.weight f4 [168, 101]
000000 41 e1 87 3e e9 be 38 3f ab 14 33 3f 7f 33 2e be
       0.26539043 0.72166306 0.6995341 -0.17011832
000010 4e 20 1d 40 ab 3f 04 c0 d8 ff 3f bf 03 e2 29 c0
       2.4550967 -2.066386 -0.7499976 -2.6544197
000020 08 05 01 3f 8a 30 d2 3f 43 11 79 3f 45 51 82 3f
       0.503983 1.6421063 0.97291964 1.0181051
000030 d2 9a be 3f 45 8f a6 3f a5 e1 1f bf 9a 6e 98 3f
       1.4890997 1.3012472 -0.6245368 1.1908753
000040 45 50 d1 bf a6 c5 a6 bf 64 09 86 3f c6 92 40 3f
       -1.6352621 -1.3029068 1.0471616 0.7522396
000050 1e b8 96 bf 1f 40 dd 3e 67 41 36 bf 59 c4 64 3f
       -1.1774938 0.43212983 -0.71193546 0.893621
000060 5f fd b9 be 0a 0c 5a bf f6 81 c2 3f 33 49 0e bf
       -0.3632612 -0.8517462 1.5195911 -0.55580443
000070 c6 97 4e bf d4 3b 9e 3d 39 bc fa bd d6 02 46 bf
       -0.8070034 0.07726255 -0.12242932 -0.7734808
000080 38 f2 09 c0 79 cf 77 bf 0d 9d 84 3f db 3d f7 3e
       -2.1554089 -0.96800953 1.0360428 0.4828938
000090 e0 62 d4 3f 26 ad 93 bf 9f bc 83 3f 8f 18 20 3d
       1.6592674 -1.1537216 1.0291938 0.03908592
0000a0 46 61 27 3d ab 38 03 bf f6 7f 9f bf 87 b1 37 3b
       0.04086425 -0.51258343 -1.2460926 0.0028029399
0000b0 f2 2b 6f be 56 ef 97 bf d9 38 c6 3f bc ae 8d 3f
       -0.23356608 -1.1869915 1.5486099 1.106895
0000c0 a5 14 05 40 35 64 84 3f 8d 2a 21 bf ea 63 5f be
       2.079385 1.0343081 -0.6295555 -0.21815458
0000d0 0e 23 85 3f 95 2f b0 3f 59 0a 15 bd 17 91 4b 3f
       1.0401323 1.3764521 -0.03638682 0.79518265
0000e0 32 65 5f bf b5 5f 00 bd 4a b5 d4 bf dc 93 da 3d
       -0.87263787 -0.031341273 -1.6617825 0.10672733
0000f0 0c fb 1d bf 20 6f 19 3f ac 72 5d 3e b4 4d 31 3f
       -0.6171119 0.5993519 0.21625775 0.6925919
000100 6a 57 52 3f 49 b2 10 3f 4c 6e 08 bf 13 bc 01 bf
       0.82164633 0.5652204 -0.532933 -0.50677603
000110 fe 5e 07 be 4c 0a 43 3f 16 e1 9b bf d5 00 13 bf
       -0.1321983 0.76187587 -1.2178066 -0.57423145
000120 72 57 6f 3e e6 54 fa be af ec a6 bf 42 89 82 3f
       0.23373201 -0.48892897 -1.304098 1.0198138
000130 ef 26 ba be 9b 2d 64 3e f4 ef d8 be 12 ef 6f 3e
       -0.3635783 0.22283022 -0.4237057 0.23431042
000140 98 cf 8a bf 93 20 47 3c c3 ec 2b 3f c0 0b 40 bf
       -1.0844603 0.012153762 0.67158145 -0.7501793
000150 ac 2e 95 bf ec 26 b9 bf f8 08 f2 3e e3 2c 99 3f
       -1.1654868 -1.4465003 0.47272468 1.1966823
000160 26 a4 a4 bf 6b 0c fc 3d 4a 65 a2 3f a7 88 0b bf
       -1.2862594 0.12307056 1.2687161 -0.5450539
000170 97 7c 07 3e e7 18 d3 bd 3c ff 43 3f b4 f6 ca bf
       0.13231121 -0.10307484 0.7656133 -1.5856538
000180 84 9e 41 3e c0 e6 9d 3f 05 15 54 bf be 81 14 40
       0.18908125 1.2336044 -0.82844573 2.3204188
000190 57 13 e6 3e 2c 74 44 3f 71 96 d9 3e f6 dc be 3b
       0.4493663 0.76739764 0.4249759 0.0058246804
0001a0 c0 b6 51 3e 06 25 7f 3e a6 9f 15 bf d8 0e 30 3e
       0.2047987 0.24916467 -0.5844673 0.17193162
0001b0 3c 61 70 3d e2 c6 85 be 2b 61 41 3f 3f 94 0a 3f
       0.05868648 -0.26128298 0.7553889 0.54132456
0001c0 48 28 f7 3e 55 0f 68 3f d2 75 d7 3e e7 cf 87 3f
       0.4827292 0.90648395 0.42082077 1.0610322
0001d0 2b f4 e7 be 19 eb 4e 3f 9c d4 23 be ba 78 bb 3f
       -0.45303473 0.8082748 -0.15999073 1.4646218
0001e0 5e 66 95 3e fa 1e 76 bf 1a 44 44 bf a3 fa 48 3f
       0.29179662 -0.96141016 -0.76666415 0.7850744
0001f0 ff ae c0 3f b4 d9 15 3e 57 22 8a bf ce 6a b6 bf
       1.5053405 0.14633828 -1.079173 -1.4251344
000200 5b 33 f4 be 60 d4 2a 3e f7 b4 7d bf bd 02 9e 3f
       -0.4769543 0.16682577 -0.99104255 1.2344586
000210 25 5b c1 3e 41 88 b0 bf 49 a8 19 3f 1e 31 ac 3f
       0.3776485 -1.3791581 0.6002241 1.3452489
000220 c4 bc 88 bf 7e 4d ae 3e 97 79 ad 3e 61 f1 30 3f
       -1.0682607 0.34043497 0.33881828 0.69118315
000230 56 62 13 40 68 ff 46 c0 25 70 ac be d3 c9 5d bd
       2.302877 -3.1093388 -0.3367931 -0.054147553
000240 c5 40 2b 3f c4 e9 86 3f c9 bd 64 3e f2 88 ed bc
       0.66895705 1.054009 0.22338022 -0.028995965
000250 b0 52 a2 bf 84 9d 5f bf f1 27 28 3f 7d bf 4b be
       -1.2681484 -0.87349725 0.65685946 -0.19897266
000260 b5 95 ea be 39 d8 1b 3f e8 a9 41 3d e2 b3 20 40
       -0.45817342 0.60876805 0.047281176 2.5109792
000270 84 07 00 bf 24 d4 2f 3f 64 3a 44 bf 2c 60 98 3f
       -0.5001147 0.68683076 -0.766516 1.1904349
000280 08 32 11 bf 3a a7 08 3f 1f d8 41 3e 6c 0c 82 3f
       -0.56716967 0.5338017 0.189301 1.0160041
000290 88 12 7f 3d 1b 7b d4 bc 58 89 14 3f 13 33 89 3e
       0.062273532 -0.025937608 0.5802207 0.2679678
0002a0 b8 3d c4 bf 7a 7a cd 3e a6 c9 1f bf 57 50 b3 be
       -1.5331335 0.40132505 -0.62417066 -0.35022232
0002b0 dc 66 d7 3e ae be cf bf dc 20 a4 be ea b1 2a bf
       0.42070663 -1.6230066 -0.3205632 -0.66677725
0002c0 2a 4a d7 bd 88 c6 fc bf 7b a7 a8 3f 5b 5f 27 c0
       -0.105121925 -1.9748087 1.3176111 -2.615195
0002d0 ec d9 8b be 3c 3e 9a bf f1 0d 97 be 5d ec 51 be
       -0.273147 -1.2050242 -0.29502824 -0.20500322
0002e0 5c 4b 52 3f 8d 5a 26 be 33 fb 1e c0 89 45 58 c0
       0.8214624 -0.1624548 -2.484082 -3.379244
0002f0 f3 af 20 3e 5f bd 9a 3e 49 99 37 bf 69 d7 a4 3f
       0.1569212 0.30222604 -0.7171827 1.2878238
000300 73 15 1d 3f 7c 48 42 3f db 66 a8 bf 88 60 80 3f
       0.61360854 0.7589185 -1.3156389 1.0029459
000310 9d 42 8d 3c ab b2 95 3e 5b ca d6 3e dc 20 a0 be
       0.017243678 0.29237875 0.4195126 -0.3127507
000320 18 a3 f3 3d dd 49 9c 3f f8 e9 fc bf eb 03 d5 be
       0.11896342 1.2210041 -1.9758902 -0.41604552
000330 53 00 2e 3f 20 63 f9 bf 11 48 a5 3e b0 d6 47 3f
       0.67969245 -1.9483376 0.32281545 0.7806196
000340 76 91 96 bf a5 c1 d5 bf af 44 3b bf cc 09 6d bf
       -1.1763141 -1.6699721 -0.7315168 -0.92593074
000350 23 ee 9d be 4e e3 c6 3f 0c 30 a0 3f 1b e2 f5 3e
       -0.30845746 1.5538118 1.2514663 0.48024067
000360 af 37 a9 be 2f c9 04 40 0e 22 94 3e d2 0a 80 3f
       -0.33050296 2.0747793 0.28932232 1.0003302
000370 44 7d a8 3c 67 ff 97 bf ed f8 c4 bf e9 32 80 3f
       0.020567544 -1.1874818 -1.5388466 1.0015537
000380 80 15 2f bf f5 88 61 3f cb 67 fb be ca a8 37 3e
       -0.6839218 0.88099605 -0.49102625 0.17935482
000390 46 5b 5d bf 4d 80 04 bf 20 b5 bb bf 46 9b 9d 3f
       -0.864674 -0.5175827 -1.466465 1.2313011
0003a0 19 93 94 3f fd 67 af 3e 3b be c2 be 91 87 5d 3e
       1.1607391 0.34259024 -0.3803576 0.21633746
0003b0 ea 54 25 bf 8e 2c 97 3e cc 95 ee 3f cb 0a 19 3f
       -0.64582694 0.2952618 1.8639464 0.59782094
0003c0 4c e9 0f bf 70 be ef bd 0b 89 8a 3f 65 cb 12 bd
       -0.5621536 -0.11706245 1.0823072 -0.035838503
0003d0 9b 2a 72 3e 5b 4e 54 bf 08 6f 02 3f 35 1c 0f 3e
       0.23649065 -0.8293206 0.5095067 0.13975604
0003e0 6a be ac bf de 89 7d 3f 4f 31 31 c0 c2 a3 f1 3f
       -1.349561 0.99038494 -2.7686346 1.88781
0003f0 a2 e3 03 40 e8 61 49 3e cc 84 dd bf 70 c8 f6 3f
       2.0607686 0.19666255 -1.7306151 1.9279919

lstm.weight_ih_l0 f4 [428, 101]
000000 0b 87 ab bd 24 69 3a 3d 47 eb 8c bd 10 c3 1a bc
       -0.08375367 0.045510426 -0.06880813 -0.009445921
000010 94 67 83 3d 33 8f 46 bd 04 91 9c bd 12 3d 5e bd
       0.0641624 -0.04847641 -0.07644847 -0.05425746
000020 fe 68 31 3d c4 31 9b bd 4c dc aa 3c d9 bd 93 3d
       0.04331302 -0.075778514 0.020856999 0.07213945
000030 e0 bc 1e bd 00 0d de 3d 4e ed d6 3c 01 0e d7 bc
       -0.038754344 0.10842323 0.026236203 -0.026251795
000040 33 7d 84 bd c4 ee ee bc 91 f5 dc bd 3f 23 a1 ba
       -0.06469192 -0.029166587 -0.107890256 -0.0012293829
000050 53 59 fb 3c e1 f5 d4 bd 75 bb 2e bd 8a 8f 9a 3d
       0.030682242 -0.1039846 -0.04265924 0.07546909
000060 3c bf 90 bd d4 cc 6e 3d b1 5b da bd 43 c2 86 bd
       -0.07067725 0.058300808 -0.1066202 -0.06580021
000070 25 93 70 3d 25 cc ae bb 1b 1d 8d bd 8f ad 92 3d
       0.058734078 -0.0053343945 -0.06890317 0.0716201
000080 ae 95 3f bd 06 59 a9 bd 45 d7 b9 3d 17 dc 54 3d
       -0.046773605 -0.08268933 0.090742625 0.051967707
000090 0e fa 02 3e 87 1e 82 bd 26 01 bc 3d bf b4 3b 3d
       0.12790701 -0.06353479 0.091799065 0.04582667
0000a0 5f 3b 00 3d 36 c9 14 3d d4 6b 9b 3d 4a bb 78 bd
       0.03130662 0.036324702 0.07588926 -0.060725488
0000b0 b2 e8 9f bd 17 84 40 3b fc 64 05 bd c2 9a f3 bc
       -0.07808055 0.0029375607 -0.03256701 -0.02973688
0000c0 2a 71 e4 bc 5f bd 04 bd 8c 33 0e be 9c 26 b9 bb
       -0.027885992 -0.03240716 -0.13886851 -0.0056503545
0000d0 60 fb f5 bd 26 a0 46 bd 8e c5 2d bd 30 68 20 3d
       -0.120108366 -0.048492573 -0.04242473 0.03916186
0000e0 71 70 e5 3a d1 4e bf 3c aa a6 25 3c 32 9b ff bd
       0.0017504824 0.023353012 0.010110537 -0.12480773
0000f0 58 3b 8f bd ca 78 d1 3c 55 ef f3 3d e4 9b 89 bd
       -0.06993741 0.025570292 0.11910883 -0.06719187
000100 22 16 1c bd b5 4f a9 3c 4a 53 c9 bc aa b2 3c 3d
       -0.038107045 0.02066789 -0.024575848 0.046068825
000110 9e 7b 58 bd 2d e3 f9 39 dc 61 65 bd 97 c7 e9 bd
       -0.052852266 0.0004766224 -0.05600153 -0.11415022
000120 48 7b 5e bc 9a 09 a9 bd f3 fd c4 bb bc 44 76 bd
       -0.013579197 -0.082537845 -0.0060117184 -0.060124144
000130 ab 31 1a bc 85 76 eb 3c 1e 6a 1c 3d fc 24 0f be
       -0.009411256 0.028743038 0.03818714 -0.13978952
000140 37 d2 c5 bc e8 e6 f3 3c 6a 85 ce bc a3 a8 28 3c
       -0.02414809 0.02977319 -0.025210101 0.010294112
000150 ba f5 de ba af cd a5 bd c9 45 02 be 9b 31 e1 3d
       -0.0017010488 -0.08095872 -0.12721933 0.109957896
000160 ee bf 8b bd e2 13 0d bd 41 7b c5 3d a4 21 42 bd
       -0.06823717 -0.03444279 0.096426494 -0.047395363
000170 22 8e db 3d f9 2a 04 bc 9e 06 83 3d 34 25 83 bd
       0.10720469 -0.008066886 0.063977465 -0.0640358
000180 ca d6 71 bd 50 87 b3 3d 05 db 8a 3b a9 19 9a bd
       -0.05904273 0.08766043 0.004237535 -0.075244255
000190 19 f8 06 3e 1c c0 88 bd 34 09 9c 3c 96 34 27 3d
       0.13180579 -0.06677267 0.019047357 0.040821634
0001a0 cd 61 1d bd 8b d0 f5 bc 80 f6 8c bd ff ae be bd
       -0.03842335 -0.030006668 -0.06882954 -0.093107216
0001b0 54 8d 42 bc 4c 33 02 be ba 6e 27 bd b4 a3 d0 bc
       -0.011874516 -0.1271488 -0.04087708 -0.025468685
0001c0 b0 f1 4d 3b e2 ba 0b 3e 32 90 74 3d 95 62 e1 3c
       0.0031424575 0.13645509 0.059707828 0.027512828
0001d0 ea f1 d2 bc 4a cc 12 bd 19 6a 49 bd 87 17 27 3d
       -0.02575012 -0.035839356 -0.04917345 0.04079392
0001e0 6f a8 bd bc 55 54 01 bd 02 ca 2b 3a ea 8c 16 be
       -0.023151604 -0.031574566 0.0006553234 -0.14702192
0001f0 c8 51 cf bc c1 06 9d 3d 2b 08 e0 bd 89 0f 36 bd
       -0.025307551 0.07667304 -0.10939058 -0.04444841
000200 f5 c8 8a bd 43 75 2a 3d 19 a2 bc 3b c3 9e fc 3d
       -0.06776611 0.041615736 0.0057566282 0.12334969
000210 76 48 56 bd 26 66 bf bd 9a 59 f0 bb 1e 17 ba bd
       -0.052315198 -0.09345655 -0.0073349 -0.090864405
000220 4f ae 05 bc 82 68 8a 3c 3b 59 e2 bc 82 59 87 bc
       -0.008159234 0.016895536 -0.027630439 -0.016522173
000230 cf a7 66 3d 4c 31 b9 bd 8d 1d c6 bd 48 bb 23 3d
       0.05631238 -0.09042606 -0.09673605 0.039973527
000240 55 1d 98 3d 0b 48 61 bd 3f 72 66 bb 1d c6 b6 3d
       0.0742747 -0.055000346 -0.003516331 0.08924506
000250 8d 81 b1 3c 30 09 a3 bc 28 89 4d bb e0 c1 30 bd
       0.02166822 -0.019901842 -0.003136227 -0.043153644
000260 5d 41 8b 3d d7 71 12 3e a0 00 ff ba 76 f9 51 bd
       0.067995764 0.14301239 -0.0019455142 -0.051263295
000270 26 18 b7 3d 95 4d cb 3c 04 1c cb bd 8a 5d a5 bd
       0.08940153 0.024817267 -0.09917453 -0.08074482
000280 fb c8 9d bd 75 87 7a bd b9 2e d9 bc c1 3b 80 3c
       -0.077043496 -0.06116434 -0.026511537 0.015653493
000290 e2 e1 08 be 81 31 e8 3c 87 ca 85 3d 87 92 15 3e
       -0.13367417 0.028343918 0.0653277 0.14606677
0002a0 58 61 0d 3c 69 c0 7b 3d 95 48 2a bc b6 ac 02 bd
       0.008629166 0.061462793 -0.0103932815 -0.03190299
0002b0 07 0c 9f 3c 66 cc bf bd 6b 7c a5 bd 31 50 bd bd
       0.019414915 -0.09365158 -0.080803715 -0.09243811
0002c0 ae 38 61 3a 07 f7 2f bd 8f e8 2b 3d 59 0e 21 3d
       0.0008591515 -0.042960193 0.041969832 0.039320324
0002d0 92 3f 49 bc 66 4a bd bc 8f 1d 31 3d cf f1 b2 bd
       -0.012283223 -0.023106765 0.04324108 -0.087375276
0002e0 ad b7 d1 bd b3 92 10 bd 88 c8 b5 3d 1d 23 00 be
       -0.102401115 -0.035296153 0.08876139 -0.12513395
0002f0 e2 3f 92 bc 05 04 a4 3d 81 b1 b3 bd 74 db a5 3d
       -0.017852727 0.08008579 -0.087740906 0.08098498
000300 44 a2 0c be 52 1a 01 bd e7 4c 10 3d 1a 84 b6 3d
       -0.13733774 -0.03151924 0.03522959 0.08911915
000310 f0 f4 40 3d ec 12 71 bd c2 7c 12 bd 22 f5 89 3d
       0.04710859 -0.058855936 -0.03576351 0.067362085
000320 40 a1 27 3c 00 41 43 3c 6e 59 00 bc f1 61 33 bc
       0.010231316 0.011917353 -0.007833822 -0.010948644
000330 36 79 77 3d 38 b4 9c 3c 56 fa 87 3d 68 2a bd bc
       0.06041833 0.019128904 0.06639545 -0.02309151
000340 a1 2e 35 bd 3e df 2b 3b 7e 71 00 be a4 13 a3 3c
       -0.044233922 0.0026225592 -0.12543294 0.019906826
000350 94 cf 9e 3d 5a 5f 17 bd 4e 60 98 b9 93 58 e2 3d
       0.07754436 -0.03695617 -0.00029063452 0.110520504
000360 0a b0 a9 bc 56 c9 99 3b e8 a2 a6 3d 13 8d 64 bd
       -0.020713825 0.0046931906 0.08136541 -0.0557986
000370 03 36 00 3e a8 46 87 3d 1c cb f1 bd ec c7 99 bd
       0.12520604 0.066052735 -0.11806318 -0.07508835
000380 70 91 93 3d af 7e be bd a6 9d 7d bc e4 c9 59 3c
       0.072054744 -0.09301507 -0.015479481 0.013292763
000390 f0 61 a3 bd b6 b2 ae bd 63 6d 58 3d e1 93 3f bc
       -0.079776645 -0.0853018 0.052838694 -0.011692972
0003a0 cc 0c 1c bd 2e 4a 28 bc 57 45 89 3b 42 b4 bc bd
       -0.03809814 -0.010271592 0.004189174 -0.09214069
0003b0 59 c6 03 3c e4 15 00 bd 8b d2 99 bd b1 00 50 3c
       0.008042895 -0.031270877 -0.07510861 0.012695477
0003c0 14 3a d4 bb b8 78 a6 3d 38 55 af bd 7a 3e 77 bd
       -0.00647665 0.08128494 -0.08561176 -0.060362317
0003d0 24 ec d4 3d 98 17 f3 3c ce 2c 0b bd d4 14 b9 3c
       0.10396603 0.029674336 -0.033978276 0.02259294
0003e0 4a 8c b8 bc 15 d5 34 bc f9 ff 0f 3c 3f 28 4d 3d
       -0.022527833 -0.011037131 0.008789056 0.05008721
0003f0 51 e1 c9 bd 83 b1 82 bd 41 ca cd 3d f8 ba 03 3d
       -0.09857429 -0.06381514 0.100483425 0.03216073

lstm.weight_hh_l0 f4 [428, 107]
000000 b7 af 14 3d 26 f5 1d 3d 64 44 03 bd 3a b5 6a 3d
       0.036300387 0.03856387 -0.032047644 0.057301737
000010 b0 d0 3f 3d 84 10 88 3d c8 08 03 3e 8c c1 5c 3d
       0.04682988 0.06643775 0.12796319 0.05389552
000020 77 9b a0 3d 4a f8 db bc e3 69 b6 bc c8 f0 b1 bd
       0.078421526 -0.026851792 -0.022267288 -0.086885035
000030 71 3a 13 3e 03 9a 91 bd 8f 9a 1b 3d ea 39 f9 3a
       0.14377762 -0.071094535 0.037989195 0.0019014452
000040 24 78 42 3d ec 06 92 3d c1 cd 36 3d 35 02 c4 3d
       0.047477856 0.071302265 0.044629816 0.095707335
000050 78 1a 3d 3d 96 b3 d5 3d eb 4f ac 3d 2d 37 ae 3d
       0.04616782 0.10434644 0.08413681 0.08506618
000060 99 14 c1 bd 9e 2d 57 3c 0e f6 38 bd e3 4f f8 bb
       -0.09427757 0.013133435 -0.04515653 -0.0075778826
000070 2f a6 a6 bd 0b 70 3d 3d 8e 81 9c 3d 4a 28 de 3d
       -0.08137166 0.04624943 0.07641898 0.10847528
000080 52 26 e6 bd 35 34 9e bd a2 13 4e 3d f2 a0 d7 3d
       -0.11237778 -0.077248015 0.050311692 0.10528745
000090 ba 34 86 3d 02 43 34 3c b1 d9 03 be a6 b4 8a bd
       0.065530255 0.011002304 -0.12876011 -0.06772737
0000a0 42 fa 58 bd 7f c3 d3 3c 43 dd 05 be 98 04 26 3c
       -0.05297304 0.025850056 -0.13072686 0.010132931
0000b0 66 97 34 bd 2e 92 81 bd 1d c0 64 bd 75 49 ff 3c
       -0.044089697 -0.0632671 -0.055847276 0.031162957
0000c0 5d 1f c1 3d 7c 3a ab bd e5 40 71 bd 7b 39 09 3e
       0.0942981 -0.083607644 -0.05889978 0.13400833
0000d0 75 0d 6a bd 67 e2 81 3d 3e 59 a8 3c e5 50 0c be
       -0.05714174 0.06342011 0.020550366 -0.13702734
0000e0 5e b0 a1 bd f9 db 74 3d 72 f8 26 bd 6f 77 1d bd
       -0.078949675 0.059780095 -0.04076428 -0.03844398
0000f0 c6 45 d7 3d 69 89 df bd a3 7f 14 ba 82 91 56 3d
       0.10511355 -0.10914881 -0.00056647713 0.05238486
000100 5e bb 91 bc 98 92 2f 3d c7 8a 71 bc 64 e0 48 3d
       -0.017789539 0.042864412 -0.01474256 0.04904212
000110 3c 4c c0 bd 0e 8c 96 bd bd 32 11 3e 0f 01 ae 3c
       -0.093895406 -0.07350932 0.14179511 0.02124074
000120 a7 e1 12 3d a2 5d a2 3c df c7 a3 bb 6e 72 67 bd
       0.03585973 0.019820038 -0.0049981917 -0.056505613
000130 b3 2e 7a 3c c3 a3 91 3c 22 49 ed bc 0c 8e c7 3d
       0.015269923 0.017778283 -0.028965537 0.0974389
000140 53 fb 8e 3a f1 b8 ec 3d 3d 5c fb bc 59 c9 5e 3d
       0.0010908641 0.11558712 -0.030683631 0.05439124
000150 4e 5e c7 3d 31 61 99 3d d3 a2 00 bd 7f 6f 06 3d
       0.09734784 0.07489241 -0.03140528 0.032821175
000160 5b 88 33 bd bf e3 9d bd 12 67 aa ba 7e 55 d7 3d
       -0.04383121 -0.07709455 -0.0013000688 0.10514353
000170 2c f6 b6 3c 83 b1 42 bd 61 91 06 3c d7 0e 01 3d
       0.02233418 -0.04753257 0.008213372 0.031508293
000180 3d ea 19 3a e5 e7 06 bc 06 f7 b0 bd 98 31 b2 bc
       0.0005871391 -0.008233999 -0.08640866 -0.021752164
000190 ce ac 33 bd 6a 48 02 be be 0a b7 bd 9b 3e 4d 3d
       -0.04386597 -0.12722936 -0.08937596 0.050108533
0001a0 b4 68 a7 bc 8c 0c cc bc bb 3e d1 3d fe 3d 01 bc
       -0.020435669 -0.024908327 0.10217043 -0.007888315
0001b0 d5 62 c9 bd 74 84 a4 3c e2 67 d1 bd 43 bd f0 3d
       -0.09833304 0.02008269 -0.10224892 0.11754849
0001c0 fc 4f 6f bd de 0a 7b 3d f7 59 55 bb d0 42 3f 3d
       -0.05842589 0.06128966 -0.0032554844 0.046694577
0001d0 43 63 f3 bc b9 7a 7b bd d0 e4 54 3b 2b 9e 0a 3e
       -0.029710418 -0.061396334 0.0032485016 0.13536899
0001e0 f4 0f 2b 3d 68 03 05 be 02 29 d5 3d 55 a1 fb 3d
       0.04176326 -0.1298958 0.10408212 0.12286631
0001f0 a1 5d 07 3d 0a 40 36 3c 9e e3 11 3d c2 2e ce bc
       0.033048276 0.011123667 0.035617463 -0.02516878
000200 e1 ea 34 3c c5 74 1e 3e 04 51 f5 3c 66 95 5b 3d
       0.011042328 0.15474232 0.029945858 0.053609274
000210 c5 c3 c8 bd 69 f5 14 3e d1 40 dc 3d 9d d3 f7 bd
       -0.09802965 0.14546742 0.1075455 -0.12100909
000220 1f fa 25 bd e4 9a ae 3d 8c 87 23 3e 5b a3 2a bd
       -0.040521737 0.08525637 0.15969676 -0.041659694
000230 5c f4 47 bd 24 47 76 3d 52 c9 16 3e 2d 9f 01 3d
       -0.048817024 0.06012644 0.14725235 0.031645942
000240 96 65 42 3d 9d 01 7b bd 2c 51 24 bc 0c a6 a6 3d
       0.04746016 -0.061280835 -0.0100291185 0.0813714
000250 0a e5 08 be 82 b1 16 be 4a 61 07 be 3c 9f 20 3e
       -0.13368621 -0.14716151 -0.13220707 0.15685743
000260 a7 51 e9 bd fa e2 5b 3d 27 07 e0 3d 1e a1 09 3e
       -0.11392527 0.05368326 0.10938864 0.13440368
000270 8e ec c4 bd a0 eb b8 bc ec b4 c1 3d c3 43 24 bc
       -0.09615432 -0.022573292 0.09458336 -0.010025921
000280 62 e4 fd 3d ee 3f 0e be 52 d3 5c 3c 73 99 87 3b
       0.12397076 -0.13891575 0.013478117 0.0041381656
000290 8b 5c 2d bd 87 5c bf 3d 51 24 82 bc 09 1e ae 3d
       -0.042324584 0.0934382 -0.015886458 0.085018225
0002a0 f2 66 1d 3e af 1a 49 3d 18 72 d0 3d 37 b1 8e 3d
       0.15371302 0.049097713 0.10178012 0.06967395
0002b0 5e 12 d6 bd e5 97 f6 bd ab 24 e9 3d 3d 6b 9b bd
       -0.10452722 -0.1204069 0.11383947 -0.075888135
0002c0 10 0f 19 bd bf 38 41 3d 17 35 1f 3e bd 49 c3 3b
       -0.03736788 0.047173258 0.15547596 0.005959718
0002d0 55 c1 c2 bd f5 6f af bc 0c 20 81 bd 5e 74 cb bd
       -0.095095314 -0.02141569 -0.063049406 -0.09934305
0002e0 3e 35 3f bd d3 78 70 bb 86 8e 16 3e b0 47 72 bd
       -0.046681635 -0.003669311 0.14702806 -0.059150398
0002f0 e6 f9 75 bb af 08 3e bd be b1 24 3e af aa a0 3d
       -0.0037532984 -0.046395 0.16083428 0.07845055
000300 cc cc 23 3c 39 b8 ea 3d 83 44 45 3d 96 b9 31 bb
       0.009997558 0.11460919 0.04816104 -0.0027118674
000310 2c 64 c2 bd 2e a0 2a bd d6 81 df 3a ff 36 03 be
       -0.094917625 -0.041656666 0.0017052244 -0.12813948
000320 b2 b5 e7 3d a2 c7 1a be 68 d5 47 bc ec e0 6e bd
       0.113139525 -0.15115216 -0.012196876 -0.05831997
000330 9a 80 f4 bd 50 23 ee bd 43 79 77 3d 4f 3f ae bd
       -0.11938591 -0.11627829 0.06041838 -0.08508169
000340 42 a4 4b bd ff 89 12 be 0e d6 ac 3c 95 ee 4d 3d
       -0.049717195 -0.14310454 0.021098163 0.050276358
000350 df 22 24 bd 6e bb 5b 3d 88 d4 d8 3d 4d 19 59 3d
       -0.04007232 0.053645544 0.10587412 0.053002644
000360 15 87 f5 bc d7 7d 9d 3d 3c 79 f6 3c 1b e3 7a bd
       -0.029971639 0.07690018 0.030087106 -0.06125174
000370 c1 45 2f 3e 96 d8 19 bd 14 6d 6f 3c 02 fb 10 3d
       0.17116453 -0.037560068 0.014613409 0.03539563
000380 7a 4f dc 3d 41 29 a6 bc ff 00 58 bd 00 40 be bd
       0.107573465 -0.020283343 -0.052735325 -0.09289551
000390 6d ea 30 3c 70 1b 1d bd 64 d9 ca bc 77 46 27 3d
       0.010798079 -0.038356245 -0.024761863 0.040838685
0003a0 e6 8a 36 bd 54 0f 98 3d ec 98 42 3d 06 54 a3 bc
       -0.044566058 0.074247986 0.04750912 -0.019937526
0003b0 b3 0d 2b bd 01 5b a5 bc 9b ef a9 3d d0 d9 bf bd
       -0.04176111 -0.020184996 0.08297654 -0.09367716
0003c0 9e a0 4d 3d 05 9a 15 3d 9d 0e f3 bc 35 b0 ad 3d
       0.050202005 0.036523838 -0.029670054 0.084808744
0003d0 86 2c 81 bc 13 c3 01 3d df 55 b5 bc f7 33 cb bc
       -0.0157683 0.031680178 -0.022135673 -0.024805052
0003e0 2b a0 0a bd 6e a2 b5 3d 9b dc d9 bb b8 ed 27 bc
       -0.033844154 0.08868872 -0.0066486127 -0.010249548
0003f0 91 11 2c bd 5b bb 97 3d 98 e5 e9 3d 60 93 5f bc
       -0.04200894 0.07408782 0.11420745 -0.013645977

lstm.bias_ih_l0 f4 [428]
000000 cd 36 a4 3c 20 43 5a 3c 25 3b 28 3c 86 82 10 3e
       0.020045662 0.013321668 0.010268007 0.1411229
000010 83 ce d2 3d 3c 79 2a 3d 3f bf 91 3d 48 35 35 3b
       0.10293295 0.041619524 0.071165554 0.0027650166
000020 1e ce d8 bc 5d ad 11 3e 6e 9e bb 3d 28 9c 92 3c
       -0.026465472 0.14226289 0.091610774 0.017896727
000030 34 59 e4 3d 48 c1 f6 bc cf 46 97 bc f9 22 89 bc
       0.11149827 -0.03012146 -0.018466381 -0.01674031
000040 20 43 50 bd c5 96 bf 3d d6 e3 48 3d 53 86 90 3d
       -0.050845265 0.09354929 0.049045406 0.0705687
000050 33 d7 90 3d 6b 28 a2 3d 81 66 68 bd fa 5d 05 3d
       0.07072296 0.07917865 -0.05673838 0.032560326
000060 7c e9 04 bd a2 77 0b ba f5 b8 bb 3c 6b 5e 89 bd
       -0.03244923 -0.0005320256 0.022915343 -0.06707462
000070 ef 9d 68 3d ad 6e c6 bc c4 0d e1 bc a7 8f 3f 3d
       0.056791242 -0.024222696 -0.027472384 0.046767857
000080 fb e9 83 3b 27 cd b8 3c 8d 79 12 3e 73 50 b2 3d
       0.0040256954 0.022558762 0.1430418 0.08706751
000090 e2 84 a8 3d 46 40 c4 3d ef e8 ce 3d a1 f0 60 bb
       0.082284704 0.09582572 0.10103022 -0.0034323114
0000a0 b7 c8 15 3e f2 e0 b8 3d 3b c8 1e bb d3 65 bc 3d
       0.14627348 0.0902728 -0.0024228233 0.09199109
0000b0 a2 69 8f 3d 01 7f f1 3b 58 fc f5 3d f1 79 1a 3d
       0.0700257 0.0073698764 0.120110214 0.03771395
0000c0 fb 6e e6 bc a4 22 92 3d e8 bc 00 3e be 7f 3f bd
       -0.028129091 0.071355134 0.12572062 -0.046752684
0000d0 ec ad b4 3c f5 f6 1c bd e9 0c 4d 3d b6 96 29 3d
       0.022055589 -0.038321454 0.05006114 0.041403495
0000e0 90 ea c1 3d be a3 77 bc f2 29 a0 3d 0b 13 5a bd
       0.09468567 -0.015114723 0.078205004 -0.053240817
0000f0 2a bc 96 bb 21 01 3c bc 5e 37 6f 3d 4b 70 94 bc
       -0.0046000676 -0.0114748785 0.05840241 -0.018119952
000100 a2 7f a7 3d d9 f7 0d 3e 68 41 50 bd ab f2 54 3c
       0.08178641 0.13864078 -0.050843626 0.01299731
000110 b2 df 0c 3e b9 51 63 3d e7 c1 12 3e ff e2 97 bc
       0.13757208 0.05549786 0.1433178 -0.018540857
000120 f6 36 2e bd cc 56 a2 3c ba 85 c5 3c ca b6 a5 3d
       -0.042532884 0.019816779 0.024111617 0.08091505
000130 c3 c1 e8 3d 0c de 97 3d b2 8e de 3d 2e 08 e7 bc
       0.11365082 0.07415399 0.10867061 -0.028202143
000140 3f 96 5b 3d 54 14 be 3c 0f 15 b9 3d a6 b4 99 3d
       0.053610083 0.023203053 0.0903722 0.07505159
000150 50 3c ad 3c 85 90 52 bd 51 8d bd bc b4 7a 19 3d
       0.021146923 -0.051407356 -0.023138674 0.037470534
000160 59 31 5f 3d 7a f4 46 3d 16 3d cb 3d d2 ed 98 3d
       0.05449042 0.048572995 0.099237606 0.074672356
000170 32 ef 75 3d 61 04 12 3c ac 2b cf 3d f0 36 84 3d
       0.060042568 0.008912177 0.101157516 0.06455791
000180 45 d2 88 3d b6 56 ce 3d c9 d4 03 3e a3 eb 07 3d
       0.06680731 0.100751325 0.1287414 0.033183705
000190 63 79 ff bc 8e 5d 95 3d 72 71 f8 3c 47 ce 94 3d
       -0.031185811 0.07293235 0.030327532 0.07265907
0001a0 e5 ab a0 3d e9 7e 3e bc f5 18 e7 3d d8 f9 72 3d
       0.07845286 -0.011626937 0.11284057 0.0593203
0001b0 f7 03 87 bd 12 28 b5 3d 03 fb b1 3d be 45 8a bc
       -0.06592553 0.088455334 0.08690455 -0.016878959
0001c0 98 d0 77 bc 05 1b a5 3d c3 fe e8 3d fb 6f bf 3d
       -0.015125416 0.08061794 0.11376717 0.093475305
0001d0 a3 7c 21 bd e7 cc 8c 3c bf 72 f5 3d aa 17 34 bd
       -0.039425503 0.017187549 0.11984777 -0.04396788
0001e0 4d da 9f 3d 45 05 9b bd bb 05 94 bd 4a 59 f9 3d
       0.078053094 -0.075693645 -0.072276555 0.12175234
0001f0 a7 d0 89 3d 42 7e fd 3d 19 5a 06 bc 54 2d 8c bd
       0.067292504 0.123775974 -0.008200192 -0.06844583
000200 4b bc a6 bd 59 ed 53 bd 2a 94 8d bd b8 f5 eb bc
       -0.08141383 -0.051740024 -0.06913026 -0.028803691
000210 71 36 c5 3d 90 46 66 bd 3c 1f cd 3d 46 7e a5 3d
       0.096295245 -0.056219637 0.10015723 0.08080725
000220 6b 3c 51 bd 3f 73 58 3d ac 74 b7 bb df 59 01 bd
       -0.05108301 0.052844282 -0.005598625 -0.03157985
000230 37 fd f7 3c c9 e5 28 3d 88 ee 0b 3e 59 53 88 bd
       0.03027211 0.041234765 0.13665211 -0.06656522
000240 1c eb 5b bd 36 89 56 3d cc 8a 70 3d 2b 57 97 3d
       -0.053691015 0.05237695 0.058726117 0.07389673
000250 0a 60 53 bd 70 3d 8d bd 32 07 ee 3d 21 24 27 3d
       -0.05160526 -0.06896484 0.11622466 0.04080594
000260 e4 6b 3f bd f2 84 75 3c fa ed 27 3d f5 0c c8 3b
       -0.046733752 0.01498531 0.040998437 0.00610506
000270 75 ea 94 3d c4 6a 4e bd 22 50 83 bd 97 cf b0 3c
       0.07271282 -0.05039479 -0.064117685 0.021583362
000280 1f be 12 3b 28 4d 2a bd f8 e9 0d bb f5 85 68 bd
       0.0022391153 -0.04157749 -0.0021654349 -0.056768376
000290 8d 05 78 3c 7e d3 a2 3d d6 e6 b8 3d c9 2d 01 bd
       0.015138042 0.07950495 0.090284035 -0.031537805
0002a0 b1 6f d2 bd b7 ff 91 3d fe 35 ad 3d 46 95 3c bd
       -0.1027521 0.07128852 0.08457564 -0.046040796
0002b0 1b fd cc 3d 4b 2e c9 3d f2 39 88 3d 58 c3 a0 bc
       0.100092135 0.09823283 0.06651677 -0.019624397
0002c0 b7 e4 80 bc ac 5c f8 3c 9d f1 e2 3d 3a 43 97 3d
       -0.01573406 0.030317627 0.1108124 0.07385869
0002d0 79 dd f1 3c 9d 5e b2 3c e1 24 45 3d 84 ce b2 3d
       0.029524552 0.02177363 0.048130874 0.08730796
0002e0 3f 9b 38 3c aa 73 8e 3d c9 b9 d8 bc 16 eb 67 bc
       0.011267482 0.06955655 -0.026455777 -0.01415517
0002f0 4b 2b 8c 3c 0f 5d 81 3d 64 36 e3 3d 30 10 0b bd
       0.017110487 0.06316578 0.110943586 -0.033950984
000300 95 e9 f2 3d f3 16 06 bd a8 70 97 3d 23 c6 59 3d
       0.118609585 -0.03273673 0.07394534 0.053167474
000310 39 0d 4a b9 97 13 a2 3c 05 cd 52 3b 43 78 c2 bc
       -0.00019269147 0.019784732 0.0032165658 -0.023738986
000320 7e 66 a9 3d ae 5f d6 3d 5e 64 34 bc 38 05 c8 3d
       0.08271502 0.10467468 -0.0110102575 0.097666204
000330 60 77 ca bc 38 b0 5e 3d 2b 4b 94 bc 2b 6c c1 3b
       -0.024715126 0.054367274 -0.01810225 0.005902787
000340 db 8f 4c 3c 80 a4 96 39 bb ff d1 bd 87 01 d3 3c
       0.01248547 0.00028732792 -0.10253855 0.025757564
000350 a3 d7 95 bd 3d c7 df 3d 06 cc e6 3c b6 f9 e9 3c
       -0.0731652 0.109266736 0.028173458 0.028561454
000360 16 90 2e 3c 48 d8 70 bb 50 82 e2 3d c0 d4 4c bd
       0.01065447 -0.0036750007 0.110600114 -0.05000758
000370 35 5d 99 bc b1 66 66 3b 73 91 a8 bc c1 e1 97 bd
       -0.018721202 0.0035156424 -0.020577168 -0.07416106
000380 77 3e 97 bc 95 dd 94 bd 99 fa ab 3d 49 1b 3a 3d
       -0.018462403 -0.07268826 0.08397407 0.045436177
000390 18 4a 02 bd 29 55 75 3d 1a 24 f1 3d 10 89 e3 3d
       -0.031808943 0.05989567 0.11774464 0.11110127
0003a0 bc 80 ab 3d ae a7 84 3d de 27 bf bb 21 13 d1 3d
       0.083741635 0.06477295 -0.00583361 0.10208727
0003b0 52 fd 5b 3d 11 db d0 bb a3 53 01 bd d7 8b 21 bd
       0.053708382 -0.006373771 -0.031573903 -0.039440002
0003c0 46 d3 3d bd 3a b2 eb 3c c9 9c 79 3d f2 ca e0 bc
       -0.046344064 0.028771508 0.060940538 -0.027440522
0003d0 a8 6b 06 bd 4b a4 a4 bc 8a 34 e4 bd eb 1c 5e bd
       -0.032817513 -0.020097872 -0.111428335 -0.054226797
0003e0 81 ce a3 bd 4c c7 24 bd 8a 5b 93 3d 74 28 5b 3d
       -0.07998372 -0.040229127 0.07195194 0.053505376
0003f0 0e ea 33 bd 89 78 76 bd 10 82 9e 3d 10 5a 60 3d
       -0.043924384 -0.060173545 0.07739651 0.05477339

lstm.bias_hh_l0 f4 [428]
000000 4f 79 70 3d ae ea e5 3d d1 0c 9e bb 09 05 b2 3d
       0.05870944 0.11226402 -0.004823305 0.08692367
000010 52 2a b7 3d c0 c2 08 3e 6b 80 0f 3e 56 14 10 bd
       0.08943619 0.13355541 0.14013831 -0.035175644
000020 51 c3 cb 3d d1 4d 81 3d 40 cb d1 3d 2e 6e cb 3d
       0.09949363 0.063136704 0.10243845 0.099331245
000030 27 d3 99 3c a4 97 cd 3d 73 60 2e 3c f7 34 14 bd
       0.018777443 0.10038689 0.0106431125 -0.036183324
000040 13 c6 41 bd b4 d7 89 3d 58 f9 bc 3d da 8d 11 bb
       -0.04730804 0.06730595 0.09227246 -0.0022209794
000050 64 d6 4a 3d da 48 c9 3d 2d 44 32 3d 8d 05 05 3e
       0.049520865 0.098283485 0.04352205 0.12990399
000060 bb cb b6 3d 50 44 11 3e e9 2d 8c bc 68 7f 32 bd
       0.08925577 0.14186215 -0.017111735 -0.043578535
000070 15 e1 e3 3d 65 30 17 bd c7 b8 70 bc f0 4d f8 3d
       0.11126915 -0.036911387 -0.014692492 0.121242404
000080 96 15 93 3d a3 a5 38 3d 96 ac 17 3e 37 b3 0a bd
       0.071818516 0.04507984 0.1481193 -0.03386232
000090 73 67 62 3d 55 0d 06 3d da c1 49 bd 36 ce e3 3c
       0.055274438 0.03272756 -0.049257137 0.02780829
0000a0 70 6f 1c 3d 02 a4 a5 3c 5e 8f 93 3c 6c 30 32 bd
       0.038192213 0.020219807 0.018012699 -0.04350321
0000b0 89 96 e4 3d 62 74 6f 3c e9 7c cc 3d 7c a2 27 3d
       0.11161525 0.01461515 0.09984762 0.04092644
0000c0 73 b2 37 3d 15 31 cd 3d 2f 7b b6 bc bc 8f f5 3d
       0.044847917 0.10019127 -0.022275535 0.11990306
0000d0 af ef 0c 3d b4 e7 1e 3d e4 87 13 3e a5 8c 0b 3e
       0.034408268 0.038795188 0.14407307 0.1362787
0000e0 70 47 0d 3e f6 8e 94 3c b0 cd 6d 3d d0 16 43 3d
       0.13796782 0.018134575 0.058057487 0.047629178
0000f0 c3 22 1f bc 2e b0 ee 3c 67 18 c2 3b 31 55 d2 3d
       -0.009712878 0.029136743 0.005923319 0.10270155
000100 08 11 c3 3d bd 1a a8 3d 46 c0 c4 3c cb c9 db 3c
       0.09524733 0.08208225 0.024017464 0.02682962
000110 f1 1a b9 3d a9 bb 01 3e ea c7 9c 3d 2c f8 0c 3e
       0.09038342 0.12669243 0.07655318 0.13766545
000120 de 3a 82 3c c3 10 24 bd 8b 46 08 bd 6f 4f 1a 3e
       0.01589721 -0.040055048 -0.0332704 0.15069364
000130 f5 e3 c1 3d 92 9e 92 3d 81 39 e7 3d ed f3 80 bd
       0.094673075 0.07159151 0.11290265 -0.06296525
000140 03 8a 81 3c 08 9c dd bc 14 0b b6 3d c1 00 a4 bb
       0.01581288 -0.02705194 0.08888832 -0.0050049727
000150 ba d2 c3 3d f3 5b dd 3c 89 8f 34 3d 36 e3 61 bd
       0.09561677 0.027021384 0.0440822 -0.055148326
000160 e1 70 75 bb 7f 94 fb bb 41 b1 bb 3d 8e 89 14 bd
       -0.0037451314 -0.007677614 0.09164668 -0.036263995
000170 1b 54 98 3d c2 0c 1e 3e 92 02 91 bc 2e 43 bb bc
       0.07437917 0.15434554 -0.017701421 -0.022859182
000180 5b 79 08 3e 0f 19 2c bd e0 12 bc bc e1 d6 84 3d
       0.13327543 -0.042016085 -0.022958219 0.064862974
000190 eb 2d 95 3d 7f 91 7e 3d 25 ab bc 3c 72 88 df 3d
       0.07284149 0.062150475 0.023030827 0.10914697
0001a0 f1 69 65 3d 69 03 05 3e 7a 8d c2 3d be bd 3b 3d
       0.056009237 0.12989582 0.09499641 0.04583525
0001b0 09 e5 a5 3d 30 c8 f6 3c fb 6c c8 3c 67 bb 9b 3d
       0.081003256 0.030124754 0.024466028 0.076041035
0001c0 21 04 13 bd 07 b4 59 3c aa 20 8d bd 82 24 9b ba
       -0.03589261 0.013287551 -0.06890996 -0.0011836442
0001d0 04 60 31 3d 5c 66 b2 3c ba b5 8a 3d 56 d1 9d 3d
       0.04330446 0.021777324 0.06772943 0.07705943
0001e0 7c 6e 89 3d fd 9e 7f bc 78 3a a3 bc 3d 46 c5 3d
       0.06710526 -0.015601871 -0.019925341 0.096325375
0001f0 72 e9 aa bd 17 a9 14 bc a8 12 03 bd 55 c6 0b bd
       -0.083453074 -0.009073517 -0.032000214 -0.03412469
000200 0c ab d5 bb bf 93 17 bd d6 5d f6 ba b7 26 69 3d
       -0.0065206345 -0.037006136 -0.0018796276 0.056921687
000210 6b b4 d4 3d 87 be 20 3d 11 3a 54 3d 42 80 89 3c
       0.103859745 0.0392442 0.05181319 0.01678479
000220 a5 f3 1f 3d 2b 0f 96 bd 67 db 2a bd d1 f6 bf 3d
       0.039050717 -0.07327112 -0.041713145 0.09373248
000230 e1 7a c0 3d 85 ca 5e 3d e7 85 c1 3d e0 23 22 3d
       0.09398437 0.054392356 0.09449368 0.039584994
000240 c6 fd d2 3c 1c af f0 3d a7 73 fa 3c fd 02 8b bd
       0.025755774 0.117521495 0.030572725 -0.06787679
000250 8a ab 38 3d 4c 69 d3 3d 12 8c 6d 3d ef 44 62 3d
       0.045085467 0.10322818 0.05799491 0.05524152
000260 04 e4 bf 3d 38 c4 ca 3d 1c b5 08 3d df b9 90 bc
       0.093696624 0.09900707 0.033375844 -0.017666755
000270 1c 47 43 bd 93 aa f0 3d e0 aa b4 3d 65 7a 51 bd
       -0.047675237 0.117512845 0.08821654 -0.051142115
000280 52 3d 4f 3c 45 9a 6a 3c 7a db 08 3d 2f c4 db bc
       0.012648897 0.014319007 0.033412434 -0.026826946
000290 88 c8 e8 3b 6c a0 77 3b 0f 2a 7c 3d 43 ff cb 3d
       0.0071039833 0.0037784828 0.061563548 0.09960797
0002a0 0d 85 00 bd 52 83 f7 3c db bd 71 bb ca a5 d1 3c
       -0.031376887 0.030213986 -0.0036886844 0.02559175
0002b0 b8 31 ad 3d 97 80 d1 3b 14 88 da 3d 3f 3a d3 3d
       0.08456749 0.006393503 0.10670486 0.10313844
0002c0 2e b2 2c 3d f8 39 54 3d 79 10 2d 3d a5 0a 59 bc
       0.042162113 0.051813096 0.042252038 -0.013247167
0002d0 11 b3 0a 3d 3c 62 d2 3d e1 58 18 b9 84 7f 9b 3d
       0.033862177 0.10272643 -0.0001452896 0.07592681
0002e0 08 2e d0 3d b8 df 55 3c 5d 30 d3 bd 83 ac 7b 3c
       0.1016503 0.013053827 -0.10311959 0.015360954
0002f0 a4 25 c2 3c a1 56 6b bd 5a 47 a8 3d d9 85 7c bd
       0.02369959 -0.057455663 0.08216734 -0.061651085
000300 dc 2c 6d bc 75 23 07 3e 6e 1d 5e 3d b7 a0 5f bc
       -0.014476027 0.1319712 0.054227285 -0.013649157
000310 4a 45 46 bd c1 3a b4 3d e3 a8 12 bd 7f c8 85 3d
       -0.048405923 0.08800269 -0.035805594 0.06532382
000320 a2 1f 3a bb f2 ac c3 3d 05 1a 62 bc 79 65 c3 3d
       -0.0028400202 0.09554471 -0.013800149 0.09540839
000330 1e 34 1e bc bd b0 1a bd 83 ca 20 3d 05 f5 f0 bc
       -0.00965598 -0.037766207 0.03925563 -0.02941371
000340 3b 86 e5 3d b3 49 74 bc 87 ed fe bd 12 c0 b5 3d
       0.11207243 -0.014910149 -0.124476485 0.08874525
000350 df 6c db 3d 69 8c 26 bd f0 83 35 3d 4b ae 19 3c
       0.10714125 -0.04066125 0.04431528 0.009379934
000360 89 3d 6b bd 48 6f 6b 3d bd 02 99 3d 74 41 df 3d
       -0.05743173 0.057479173 0.074712254 0.10901156
000370 bd 98 d9 3c 84 4d b8 bd 63 ca c2 3c 47 33 51 3d
       0.02656209 -0.0899916 0.023778146 0.051074293
000380 4a e0 6c 3d 6a be cc bd 52 fa c1 3d 65 9a a2 bd
       0.057831086 -0.09997256 0.09471573 -0.07939605
000390 af 9a 30 bd 1f 54 21 3d 8b a9 ba 3d 42 de 1d bc
       -0.043116268 0.039386865 0.09114369 -0.00963551
0003a0 22 fd 15 3d 30 3c 2a bd 3b e2 a2 3b ae fc 83 3d
       0.03661836 -0.041561306 0.0049708164 0.06444679
0003b0 e0 53 ec 3b 2f e0 61 3d 30 22 b2 bc fb b4 1a 3d
       0.007212147 0.05514544 -0.021744817 0.037770253
0003c0 33 3d 50 ba 26 97 a8 bc 35 c3 75 bd 32 96 bf 3c
       -0.00079436897 -0.020579886 -0.060000617 0.023387048
0003d0 e1 00 26 bd 5b 2d df 3d 84 ac d0 bd 35 c6 89 3d
       -0.040528182 0.10897323 -0.10189155 0.06727258
0003e0 31 d3 20 3c 81 32 1c 3d 86 c4 7c bd be 5d 3a bd
       0.009815977 0.0381341 -0.061710857 -0.045499556
0003f0 d8 e6 af bd 1a 89 f2 bd d7 a4 0c bd d1 1d ef ba
       -0.08588952 -0.11842556 -0.03433689 -0.0018243139

lstm.weight_ih_l0_reverse f4 [428, 101]
000000 12 28 96 bc c5 c0 25 3d 85 8a aa bd ee 69 81 3d
       -0.018329654 0.040467042 -0.08327202 0.063190326
000010 6c 9a 7c 3d a7 9f 17 bd 05 06 0e 3d 07 8b 5d bd
       0.061670706 -0.03701749 0.03467371 -0.054087665
000020 2c 4f a2 bd c4 57 f0 3c f7 78 e9 bc a4 70 1a bc
       -0.07925257 0.029338725 -0.028500063 -0.00942627
000030 c2 27 d0 3c ba 3b 51 bd ae f5 3d 3d a8 cd da 3d
       0.025409583 -0.05108235 0.046376877 0.10683757
000040 f0 ff 78 3d d8 c1 20 bd b4 c2 b1 bd 04 89 87 3d
       0.060790956 -0.039247364 -0.08679715 0.066179305
000050 a6 42 14 3c 8c e1 a9 3c 31 ff e3 3d 6b 82 15 3d
       0.009049093 0.020737432 0.11132658 0.03650133
000060 3a d2 20 3d 54 f4 e7 3c 50 e7 ce bb 82 b4 e6 bb
       0.039262988 0.028314747 -0.0063141957 -0.007040561
000070 44 6c 59 bd 54 e3 28 3b f0 9a 94 3c 50 bc 93 3b
       -0.053081766 0.0025770264 0.018140286 0.0045085326
000080 27 28 e5 3a 6f f1 90 3d 34 fb 69 bd 07 2c b6 3d
       0.001748328 0.070773 -0.05712433 0.08895116
000090 e5 7a 8c 3d 5f 97 73 bd cf 90 8e bd 8d 51 03 3e
       0.06859378 -0.05947053 -0.06961214 0.12824078
0000a0 7b 86 1c bd b3 be 0e bd a2 32 c1 bd 7c 10 b6 bd
       -0.038214188 -0.034849834 -0.094334856 -0.08889863
0000b0 48 46 e0 bb ce d2 86 bd 91 3f 4e 3d 74 78 57 3d
       -0.0068443157 -0.065831766 0.05035359 0.052605107
0000c0 d3 0d ba bc 47 4b e5 3d ff 1b ba 3d f2 30 9c 3d
       -0.02271167 0.11195999 0.09087371 0.07626523
0000d0 af cd 81 bd 51 2c f2 bd a7 af dd 3d 3a c4 12 3c
       -0.06338059 -0.11824859 0.10824519 0.008957917
0000e0 28 58 bb bd f4 fe 8e bd 8d f6 79 bd 8d 69 77 bd
       -0.09147674 -0.06982222 -0.061026145 -0.060403395
0000f0 43 2b c7 3c f5 94 4f bd 20 12 c2 bd 20 d1 d5 3d
       0.024312621 -0.050679166 -0.09476113 0.10440278
000100 8f 61 a1 3d 66 c8 06 3e e1 1f bf 3d e9 72 18 bd
       0.07879936 0.13162383 0.09332252 -0.037218962
000110 02 3a ec bd cf df fc bb 8c b3 f1 3c b7 f9 9d 3d
       -0.115345016 -0.0077171098 0.02950456 0.07713645
000120 00 89 4b bc c5 1d 21 bd 41 a6 ae bd d8 b7 62 3d
       -0.0124228 -0.03933503 -0.08527804 0.05535111
000130 49 52 2d 3d c1 23 8e 3d 82 1a af bd 97 43 0e 3d
       0.0423148 0.06940413 -0.08549978 0.034732427
000140 52 c5 18 3d 94 08 68 3d 9e b3 a0 bd 5f e0 6d 3d
       0.037297554 0.056648806 -0.07846759 0.058075305
000150 bf d3 89 3d 4f 51 a1 3d 89 f9 a0 bc d6 37 99 bc
       0.067298405 0.078768365 -0.019650238 -0.018703382
000160 dd 99 5b bd 25 17 ed 3c df 59 a5 ba 09 51 cf 3d
       -0.053613532 0.0289417 -0.0012615285 0.10122878
000170 6d f8 e7 3b d5 32 d1 bc da 39 33 3b d6 b7 02 be
       0.007079175 -0.025536934 0.0027347715 -0.1276544
000180 ee 21 0d 3a 9c 2d b0 3d 14 de b4 bd 7f 3c 8a 3d
       0.0005383779 0.08602449 -0.088314205 0.0674982
000190 29 c3 0f 3e c9 ab 76 bd 29 f3 a1 bd 29 d3 96 3d
       0.14039291 -0.06022242 -0.07907707 0.07364494
0001a0 cb 2c ee bc c8 ef 32 bd 1a d0 85 3d 23 f9 d0 bd
       -0.029074093 -0.043685704 0.06533833 -0.10203769
0001b0 83 46 9c bd 4f e4 1c 3d 5a 45 a1 3d 71 6e 1e bd
       -0.076306365 0.03830367 0.07874556 -0.038679544
0001c0 be 4d 83 bd 5e dc 31 bc 9d 9d 06 3d 70 7a 08 bb
       -0.064113125 -0.010855762 0.032865155 -0.0020824932
0001d0 3b b5 9d 3d d1 35 ba bc 51 e8 63 bb 3a 85 03 bd
       0.077005826 -0.02273074 -0.0034775923 -0.032109477
0001e0 b4 ae 82 bd 87 d1 85 3c e6 00 b3 3d 9a 3e 6e 3d
       -0.06380978 0.016335262 0.08740406 0.05816517
0001f0 4e d1 82 3d 69 38 88 3d 54 1d 1a bc 29 0e e5 3c
       0.06387578 0.066513844 -0.009406406 0.027960854
000200 6d 04 82 3d 34 dc 78 bd 6f 7d e8 3d 3d 67 95 bd
       0.063485004 -0.060756877 0.113520496 -0.07295082
000210 9f e4 b2 3b 9d cf e7 bd 66 10 2b bd 4d 4d 29 3d
       0.0054593827 -0.11318896 -0.041763686 0.041333485
000220 70 93 ac bd cb cf 5a 3d aa ab 21 bd 40 06 ba 3c
       -0.08426559 0.053420823 -0.039470352 0.022708058
000230 d7 ad a1 bd 46 d4 6d 3d e5 4a 99 bd 59 70 7f bd
       -0.078944854 0.058063768 -0.07484988 -0.062363002
000240 2b a7 9a 3d 77 87 69 bb 5e f0 73 3d ff be 67 3b
       0.07551416 -0.0035633722 0.059555404 0.0035361645
000250 48 96 cf 3d 9d 9a 25 bd e3 e6 26 3d 2b 76 ac bd
       0.10136086 -0.040430654 0.040747534 -0.08420976
000260 c3 24 09 bd 65 ed 05 bd 77 5c a6 bc fb 03 f1 3c
       -0.033482324 -0.0326971 -0.020307763 0.029420843
000270 88 98 bd 3d 47 66 21 3c 53 f6 1f 3a 17 a3 14 3d
       0.09257609 0.009851045 0.0006102074 0.036288347
000280 13 cc 47 bd 1c c3 a6 3d ea 1b d5 3d 40 45 03 3e
       -0.048778605 0.08142683 0.10405715 0.12819386
000290 12 24 b2 3c c3 2a 8c 3d b9 12 63 bc 27 d8 79 3d
       0.021745715 0.06844094 -0.013859444 0.060997155
0002a0 81 21 90 ba 12 7b a1 3c d7 52 6f bd fd 0d ea bc
       -0.0010996313 0.019712005 -0.05842861 -0.028571123
0002b0 ee e5 d4 bd 8e 7a 94 bd 0e 26 02 3d 2b b6 19 3c
       -0.10395418 -0.07249938 0.031774573 0.009381811
0002c0 1e 7e e5 3d 35 01 a0 bd a0 b1 9f 3d a1 62 46 bd
       0.112056956 -0.0781273 0.07797551 -0.048433904
0002d0 3c d8 af bd 96 a3 96 3d d4 ca d5 3d 7c fe 03 be
       -0.08586165 0.0735542 0.10439077 -0.12890047
0002e0 2a 6a 20 3d 51 3d 55 3c 1c 8c 8d bd 67 34 ed bd
       0.039163746 0.013015107 -0.06911489 -0.115822606
0002f0 39 e6 69 bd 57 1e 8d 3c 35 9b b9 bc d3 fb 47 bd
       -0.057104323 0.017226381 -0.022657016 -0.048824143
000300 9a fb 1c 3d 31 f0 b5 3d 5d f7 f2 bd 19 fc a4 3d
       0.038325883 0.088837035 -0.11863587 0.08055896
000310 ac 79 5f 3d ee ec 52 bd 84 35 37 3d 00 fc 3f bd
       0.054559395 -0.051495485 0.04472877 -0.046871185
000320 47 fd b5 3c 2e 66 e4 3d 47 04 9f 3c 3b 49 e5 3b
       0.022215499 0.11152302 0.01941122 0.006997255
000330 fb b7 d3 bd 25 71 7d bc 7e 52 65 3b 8d db c0 bd
       -0.10337826 -0.01546887 0.0034991796 -0.09416876
000340 4b 52 83 bd e5 55 49 bb 6b f1 58 3d 00 bb 50 bd
       -0.064121805 -0.0030721363 0.05296461 -0.050959587
000350 01 3c 01 be 3b ff a6 3c 92 c0 28 3d f7 18 0b bd
       -0.12620546 0.020385375 0.041199274 -0.033959355
000360 38 b9 72 3d b1 fa 1f bc 0c ad 76 3b 8f ae 0c bc
       0.05925867 -0.009764359 0.0037639765 -0.00858654
000370 2f 65 3c bd 43 eb 2f bd 82 fa ba 3d 09 11 31 3d
       -0.045994934 -0.042948972 0.09129812 0.043229137
000380 dc 09 c8 3c 43 7d 90 3c 27 f2 02 3e 29 1f da bd
       0.024418764 0.017637854 0.12787686 -0.106504746
000390 16 91 8d 3d 59 fe ba bc 7d ad 85 3d df c4 32 3d
       0.069124386 -0.02282636 0.06527231 0.043644782
0003a0 df 5f d2 3d 45 67 d9 bd 19 98 88 bd 90 dd 34 bd
       0.10272192 -0.106154 -0.06669635 -0.04415661
0003b0 8f c5 02 bd 03 f5 e9 bd 73 b9 0f 3d 24 be 02 bd
       -0.031926688 -0.114236854 0.035088968 -0.031919613
0003c0 0c eb 36 bc 59 5b 62 3d 8b 3c 4b 3d a8 72 25 bd
       -0.011164438 0.055262897 0.049618285 -0.040392548
0003d0 cb 55 0a bd cd c1 40 bd 37 1c 91 3d a6 89 06 3e
       -0.033773225 -0.047059823 0.0708546 0.13138446
0003e0 ea 0d 89 3d 5c c9 3a bd 43 5e 0e bd cb 40 12 bc
       0.06692107 -0.045602188 -0.034757864 -0.008926581
0003f0 72 9e a9 bc 9f 8c bd 3d 92 45 56 3d 17 aa 80 bc
       -0.020705435 0.09255337 0.05231244 -0.015706105
